module  {
  flow.variable @"__iree_flow___sm_node19__model.layer-2.kernel" dense<"…"> : tensor<784x10xf32> attributes {sym_visibility = "private"} loc(#loc0)
  flow.variable @"__iree_flow___sm_node20__model.layer-2.bias" dense<0.000000e+00> : tensor<10xf32> attributes {sym_visibility = "private"} loc(#loc0)
  flow.variable @"__iree_flow___sm_node25__model.layer-3.kernel" dense<"…"> : tensor<10x128xf32> attributes {sym_visibility = "private"} loc(#loc0)
  flow.variable @"__iree_flow___sm_node26__model.layer-3.bias" dense<0.000000e+00> : tensor<128xf32> attributes {sym_visibility = "private"} loc(#loc0)
  flow.variable @"__iree_flow___sm_node35__model.layer-5.kernel" dense<"…"> : tensor<128x10xf32> attributes {sym_visibility = "private"} loc(#loc0)
  flow.variable @"__iree_flow___sm_node36__model.layer-5.bias" dense<0.000000e+00> : tensor<10xf32> attributes {sym_visibility = "private"} loc(#loc0)
  func @predict(%arg0: tensor<1x28x28x1xf32> {tf._user_specified_name = "inputs"}) -> tensor<1x10xf32> attributes {iree.module.export, iree.reflection = {abi = "sip", abiv = 1 : i32, sip = "I8!S5!k0_0R3!_0"}, tf._construction_context = "kEagerRuntime", tf._input_shapes = [#tf.shape<1x28x28x1>, #tf.shape<>, #tf.shape<>, #tf.shape<>, #tf.shape<>, #tf.shape<>, #tf.shape<>], tf.signature.is_stateful} {
    %0 = flow.variable.address @"__iree_flow___sm_node19__model.layer-2.kernel" : !iree.ptr<tensor<784x10xf32>> loc(#loc0)
    %1 = flow.variable.address @"__iree_flow___sm_node20__model.layer-2.bias" : !iree.ptr<tensor<10xf32>> loc(#loc0)
    %2 = flow.variable.address @"__iree_flow___sm_node25__model.layer-3.kernel" : !iree.ptr<tensor<10x128xf32>> loc(#loc0)
    %3 = flow.variable.address @"__iree_flow___sm_node26__model.layer-3.bias" : !iree.ptr<tensor<128xf32>> loc(#loc0)
    %4 = flow.variable.address @"__iree_flow___sm_node35__model.layer-5.kernel" : !iree.ptr<tensor<128x10xf32>> loc(#loc0)
    %5 = flow.variable.address @"__iree_flow___sm_node36__model.layer-5.bias" : !iree.ptr<tensor<10xf32>> loc(#loc0)
    %6 = mhlo.constant dense<0.000000e+00> : tensor<1x128xf32> loc(#loc1)
    %7 = mhlo.constant dense<0xFF800000> : tensor<f32> loc(#loc2)
    %8 = mhlo.constant dense<0.000000e+00> : tensor<f32> loc(#loc2)
    %9 = "mhlo.reshape"(%arg0) : (tensor<1x28x28x1xf32>) -> tensor<1x784xf32> loc(#loc3)
    %10 = flow.variable.load.indirect %3 : !iree.ptr<tensor<128xf32>> -> tensor<128xf32> loc(#loc4)
    %11 = flow.variable.load.indirect %2 : !iree.ptr<tensor<10x128xf32>> -> tensor<10x128xf32> loc(#loc5)
    %12 = flow.variable.load.indirect %5 : !iree.ptr<tensor<10xf32>> -> tensor<10xf32> loc(#loc6)
    %13 = flow.variable.load.indirect %4 : !iree.ptr<tensor<128x10xf32>> -> tensor<128x10xf32> loc(#loc7)
    %14 = flow.variable.load.indirect %1 : !iree.ptr<tensor<10xf32>> -> tensor<10xf32> loc(#loc8)
    %15 = flow.variable.load.indirect %0 : !iree.ptr<tensor<784x10xf32>> -> tensor<784x10xf32> loc(#loc9)
    %16 = "mhlo.dot"(%9, %15) : (tensor<1x784xf32>, tensor<784x10xf32>) -> tensor<1x10xf32> loc(#loc10)
    %17 = "mhlo.broadcast_in_dim"(%14) {broadcast_dimensions = dense<1> : tensor<1xi64>} : (tensor<10xf32>) -> tensor<1x10xf32> loc(#loc11)
    %18 = mhlo.add %16, %17 : tensor<1x10xf32> loc(#loc11)
    %19 = "mhlo.dot"(%18, %11) : (tensor<1x10xf32>, tensor<10x128xf32>) -> tensor<1x128xf32> loc(#loc12)
    %20 = "mhlo.broadcast_in_dim"(%10) {broadcast_dimensions = dense<1> : tensor<1xi64>} : (tensor<128xf32>) -> tensor<1x128xf32> loc(#loc13)
    %21 = mhlo.add %19, %20 : tensor<1x128xf32> loc(#loc13)
    %22 = mhlo.maximum %21, %6 : tensor<1x128xf32> loc(#loc1)
    %23 = "mhlo.dot"(%22, %13) : (tensor<1x128xf32>, tensor<128x10xf32>) -> tensor<1x10xf32> loc(#loc14)
    %24 = "mhlo.broadcast_in_dim"(%12) {broadcast_dimensions = dense<1> : tensor<1xi64>} : (tensor<10xf32>) -> tensor<1x10xf32> loc(#loc15)
    %25 = mhlo.add %23, %24 : tensor<1x10xf32> loc(#loc15)
    %26 = "mhlo.reduce"(%25, %7) ( {
    ^bb0(%arg1: tensor<f32>, %arg2: tensor<f32>):  // no predecessors
      %33 = mhlo.maximum %arg1, %arg2 : tensor<f32> loc(#loc2)
      "mhlo.return"(%33) : (tensor<f32>) -> () loc(#loc2)
    }) {dimensions = dense<1> : tensor<1xi64>} : (tensor<1x10xf32>, tensor<f32>) -> tensor<1xf32> loc(#loc2)
    %27 = "mhlo.broadcast_in_dim"(%26) {broadcast_dimensions = dense<0> : tensor<1xi64>} : (tensor<1xf32>) -> tensor<1x10xf32> loc(#loc2)
    %28 = mhlo.subtract %25, %27 : tensor<1x10xf32> loc(#loc2)
    %29 = "mhlo.exponential"(%28) : (tensor<1x10xf32>) -> tensor<1x10xf32> loc(#loc2)
    %30 = "mhlo.reduce"(%29, %8) ( {
    ^bb0(%arg1: tensor<f32>, %arg2: tensor<f32>):  // no predecessors
      %33 = mhlo.add %arg1, %arg2 : tensor<f32> loc(#loc2)
      "mhlo.return"(%33) : (tensor<f32>) -> () loc(#loc2)
    }) {dimensions = dense<1> : tensor<1xi64>} : (tensor<1x10xf32>, tensor<f32>) -> tensor<1xf32> loc(#loc2)
    %31 = "mhlo.broadcast_in_dim"(%30) {broadcast_dimensions = dense<0> : tensor<1xi64>} : (tensor<1xf32>) -> tensor<1x10xf32> loc(#loc2)
    %32 = mhlo.divide %29, %31 : tensor<1x10xf32> loc(#loc2)
    return %32 : tensor<1x10xf32> loc(#loc0)
  } loc(#loc0)
} loc(#loc0)
#loc0 = loc(unknown)
#loc1 = loc(callsite("model/dense_1/Relu@__inference_predict_112"("/home/stanley/env/npx/lib/python3.8/site-packages/tensorflow/python/keras/engine/functional.py":420:0) at callsite("/home/stanley/env/npx/lib/python3.8/site-packages/tensorflow/python/keras/engine/base_layer.py":1030:0 at callsite("/home/stanley/iree/iree/samples/mnistnet/generate_vision_model.py":67:0 at callsite("/home/stanley/env/npx/lib/python3.8/site-packages/tensorflow/python/framework/func_graph.py":975:0 at callsite("/home/stanley/env/npx/lib/python3.8/site-packages/tensorflow/python/eager/function.py":3971:0 at callsite("/home/stanley/env/npx/lib/python3.8/site-packages/tensorflow/python/eager/def_function.py":672:0 at callsite("/home/stanley/env/npx/lib/python3.8/site-packages/tensorflow/python/framework/func_graph.py":999:0 at callsite("/home/stanley/env/npx/lib/python3.8/site-packages/tensorflow/python/eager/function.py":3279:0 at callsite("/home/stanley/env/npx/lib/python3.8/site-packages/tensorflow/python/eager/function.py":3444:0 at "/home/stanley/env/npx/lib/python3.8/site-packages/tensorflow/python/eager/function.py":3050:0))))))))))
#loc2 = loc(callsite("model/softmax/Softmax@__inference_predict_112"("/home/stanley/env/npx/lib/python3.8/site-packages/tensorflow/python/keras/engine/functional.py":420:0) at callsite("/home/stanley/env/npx/lib/python3.8/site-packages/tensorflow/python/keras/engine/base_layer.py":1030:0 at callsite("/home/stanley/iree/iree/samples/mnistnet/generate_vision_model.py":67:0 at callsite("/home/stanley/env/npx/lib/python3.8/site-packages/tensorflow/python/framework/func_graph.py":975:0 at callsite("/home/stanley/env/npx/lib/python3.8/site-packages/tensorflow/python/eager/function.py":3971:0 at callsite("/home/stanley/env/npx/lib/python3.8/site-packages/tensorflow/python/eager/def_function.py":672:0 at callsite("/home/stanley/env/npx/lib/python3.8/site-packages/tensorflow/python/framework/func_graph.py":999:0 at callsite("/home/stanley/env/npx/lib/python3.8/site-packages/tensorflow/python/eager/function.py":3279:0 at callsite("/home/stanley/env/npx/lib/python3.8/site-packages/tensorflow/python/eager/function.py":3444:0 at "/home/stanley/env/npx/lib/python3.8/site-packages/tensorflow/python/eager/function.py":3050:0))))))))))
#loc3 = loc(callsite("model/flatten/Reshape@__inference_predict_112"("/home/stanley/env/npx/lib/python3.8/site-packages/tensorflow/python/keras/engine/functional.py":420:0) at callsite("/home/stanley/env/npx/lib/python3.8/site-packages/tensorflow/python/keras/engine/base_layer.py":1030:0 at callsite("/home/stanley/iree/iree/samples/mnistnet/generate_vision_model.py":67:0 at callsite("/home/stanley/env/npx/lib/python3.8/site-packages/tensorflow/python/framework/func_graph.py":975:0 at callsite("/home/stanley/env/npx/lib/python3.8/site-packages/tensorflow/python/eager/function.py":3971:0 at callsite("/home/stanley/env/npx/lib/python3.8/site-packages/tensorflow/python/eager/def_function.py":672:0 at callsite("/home/stanley/env/npx/lib/python3.8/site-packages/tensorflow/python/framework/func_graph.py":999:0 at callsite("/home/stanley/env/npx/lib/python3.8/site-packages/tensorflow/python/eager/function.py":3279:0 at callsite("/home/stanley/env/npx/lib/python3.8/site-packages/tensorflow/python/eager/function.py":3444:0 at "/home/stanley/env/npx/lib/python3.8/site-packages/tensorflow/python/eager/function.py":3050:0))))))))))
#loc4 = loc(callsite("model/dense_1/BiasAdd/ReadVariableOp@__inference_predict_112"("/home/stanley/env/npx/lib/python3.8/site-packages/tensorflow/python/keras/engine/functional.py":420:0) at callsite("/home/stanley/env/npx/lib/python3.8/site-packages/tensorflow/python/keras/engine/base_layer.py":1030:0 at callsite("/home/stanley/iree/iree/samples/mnistnet/generate_vision_model.py":67:0 at callsite("/home/stanley/env/npx/lib/python3.8/site-packages/tensorflow/python/framework/func_graph.py":975:0 at callsite("/home/stanley/env/npx/lib/python3.8/site-packages/tensorflow/python/eager/function.py":3971:0 at callsite("/home/stanley/env/npx/lib/python3.8/site-packages/tensorflow/python/eager/def_function.py":672:0 at callsite("/home/stanley/env/npx/lib/python3.8/site-packages/tensorflow/python/framework/func_graph.py":999:0 at callsite("/home/stanley/env/npx/lib/python3.8/site-packages/tensorflow/python/eager/function.py":3279:0 at callsite("/home/stanley/env/npx/lib/python3.8/site-packages/tensorflow/python/eager/function.py":3444:0 at "/home/stanley/env/npx/lib/python3.8/site-packages/tensorflow/python/eager/function.py":3050:0))))))))))
#loc5 = loc(callsite("model/dense_1/MatMul/ReadVariableOp@__inference_predict_112"("/home/stanley/env/npx/lib/python3.8/site-packages/tensorflow/python/keras/engine/functional.py":420:0) at callsite("/home/stanley/env/npx/lib/python3.8/site-packages/tensorflow/python/keras/engine/base_layer.py":1030:0 at callsite("/home/stanley/iree/iree/samples/mnistnet/generate_vision_model.py":67:0 at callsite("/home/stanley/env/npx/lib/python3.8/site-packages/tensorflow/python/framework/func_graph.py":975:0 at callsite("/home/stanley/env/npx/lib/python3.8/site-packages/tensorflow/python/eager/function.py":3971:0 at callsite("/home/stanley/env/npx/lib/python3.8/site-packages/tensorflow/python/eager/def_function.py":672:0 at callsite("/home/stanley/env/npx/lib/python3.8/site-packages/tensorflow/python/framework/func_graph.py":999:0 at callsite("/home/stanley/env/npx/lib/python3.8/site-packages/tensorflow/python/eager/function.py":3279:0 at callsite("/home/stanley/env/npx/lib/python3.8/site-packages/tensorflow/python/eager/function.py":3444:0 at "/home/stanley/env/npx/lib/python3.8/site-packages/tensorflow/python/eager/function.py":3050:0))))))))))
#loc6 = loc(callsite("model/dense_2/BiasAdd/ReadVariableOp@__inference_predict_112"("/home/stanley/env/npx/lib/python3.8/site-packages/tensorflow/python/keras/engine/functional.py":420:0) at callsite("/home/stanley/env/npx/lib/python3.8/site-packages/tensorflow/python/keras/engine/base_layer.py":1030:0 at callsite("/home/stanley/iree/iree/samples/mnistnet/generate_vision_model.py":67:0 at callsite("/home/stanley/env/npx/lib/python3.8/site-packages/tensorflow/python/framework/func_graph.py":975:0 at callsite("/home/stanley/env/npx/lib/python3.8/site-packages/tensorflow/python/eager/function.py":3971:0 at callsite("/home/stanley/env/npx/lib/python3.8/site-packages/tensorflow/python/eager/def_function.py":672:0 at callsite("/home/stanley/env/npx/lib/python3.8/site-packages/tensorflow/python/framework/func_graph.py":999:0 at callsite("/home/stanley/env/npx/lib/python3.8/site-packages/tensorflow/python/eager/function.py":3279:0 at callsite("/home/stanley/env/npx/lib/python3.8/site-packages/tensorflow/python/eager/function.py":3444:0 at "/home/stanley/env/npx/lib/python3.8/site-packages/tensorflow/python/eager/function.py":3050:0))))))))))
#loc7 = loc(callsite("model/dense_2/MatMul/ReadVariableOp@__inference_predict_112"("/home/stanley/env/npx/lib/python3.8/site-packages/tensorflow/python/keras/engine/functional.py":420:0) at callsite("/home/stanley/env/npx/lib/python3.8/site-packages/tensorflow/python/keras/engine/base_layer.py":1030:0 at callsite("/home/stanley/iree/iree/samples/mnistnet/generate_vision_model.py":67:0 at callsite("/home/stanley/env/npx/lib/python3.8/site-packages/tensorflow/python/framework/func_graph.py":975:0 at callsite("/home/stanley/env/npx/lib/python3.8/site-packages/tensorflow/python/eager/function.py":3971:0 at callsite("/home/stanley/env/npx/lib/python3.8/site-packages/tensorflow/python/eager/def_function.py":672:0 at callsite("/home/stanley/env/npx/lib/python3.8/site-packages/tensorflow/python/framework/func_graph.py":999:0 at callsite("/home/stanley/env/npx/lib/python3.8/site-packages/tensorflow/python/eager/function.py":3279:0 at callsite("/home/stanley/env/npx/lib/python3.8/site-packages/tensorflow/python/eager/function.py":3444:0 at "/home/stanley/env/npx/lib/python3.8/site-packages/tensorflow/python/eager/function.py":3050:0))))))))))
#loc8 = loc(callsite("model/dense/BiasAdd/ReadVariableOp@__inference_predict_112"("/home/stanley/env/npx/lib/python3.8/site-packages/tensorflow/python/keras/engine/functional.py":420:0) at callsite("/home/stanley/env/npx/lib/python3.8/site-packages/tensorflow/python/keras/engine/base_layer.py":1030:0 at callsite("/home/stanley/iree/iree/samples/mnistnet/generate_vision_model.py":67:0 at callsite("/home/stanley/env/npx/lib/python3.8/site-packages/tensorflow/python/framework/func_graph.py":975:0 at callsite("/home/stanley/env/npx/lib/python3.8/site-packages/tensorflow/python/eager/function.py":3971:0 at callsite("/home/stanley/env/npx/lib/python3.8/site-packages/tensorflow/python/eager/def_function.py":672:0 at callsite("/home/stanley/env/npx/lib/python3.8/site-packages/tensorflow/python/framework/func_graph.py":999:0 at callsite("/home/stanley/env/npx/lib/python3.8/site-packages/tensorflow/python/eager/function.py":3279:0 at callsite("/home/stanley/env/npx/lib/python3.8/site-packages/tensorflow/python/eager/function.py":3444:0 at "/home/stanley/env/npx/lib/python3.8/site-packages/tensorflow/python/eager/function.py":3050:0))))))))))
#loc9 = loc(callsite("model/dense/MatMul/ReadVariableOp@__inference_predict_112"("/home/stanley/env/npx/lib/python3.8/site-packages/tensorflow/python/keras/engine/functional.py":420:0) at callsite("/home/stanley/env/npx/lib/python3.8/site-packages/tensorflow/python/keras/engine/base_layer.py":1030:0 at callsite("/home/stanley/iree/iree/samples/mnistnet/generate_vision_model.py":67:0 at callsite("/home/stanley/env/npx/lib/python3.8/site-packages/tensorflow/python/framework/func_graph.py":975:0 at callsite("/home/stanley/env/npx/lib/python3.8/site-packages/tensorflow/python/eager/function.py":3971:0 at callsite("/home/stanley/env/npx/lib/python3.8/site-packages/tensorflow/python/eager/def_function.py":672:0 at callsite("/home/stanley/env/npx/lib/python3.8/site-packages/tensorflow/python/framework/func_graph.py":999:0 at callsite("/home/stanley/env/npx/lib/python3.8/site-packages/tensorflow/python/eager/function.py":3279:0 at callsite("/home/stanley/env/npx/lib/python3.8/site-packages/tensorflow/python/eager/function.py":3444:0 at "/home/stanley/env/npx/lib/python3.8/site-packages/tensorflow/python/eager/function.py":3050:0))))))))))
#loc10 = loc(callsite("model/dense/MatMul@__inference_predict_112"("/home/stanley/env/npx/lib/python3.8/site-packages/tensorflow/python/keras/engine/functional.py":420:0) at callsite("/home/stanley/env/npx/lib/python3.8/site-packages/tensorflow/python/keras/engine/base_layer.py":1030:0 at callsite("/home/stanley/iree/iree/samples/mnistnet/generate_vision_model.py":67:0 at callsite("/home/stanley/env/npx/lib/python3.8/site-packages/tensorflow/python/framework/func_graph.py":975:0 at callsite("/home/stanley/env/npx/lib/python3.8/site-packages/tensorflow/python/eager/function.py":3971:0 at callsite("/home/stanley/env/npx/lib/python3.8/site-packages/tensorflow/python/eager/def_function.py":672:0 at callsite("/home/stanley/env/npx/lib/python3.8/site-packages/tensorflow/python/framework/func_graph.py":999:0 at callsite("/home/stanley/env/npx/lib/python3.8/site-packages/tensorflow/python/eager/function.py":3279:0 at callsite("/home/stanley/env/npx/lib/python3.8/site-packages/tensorflow/python/eager/function.py":3444:0 at "/home/stanley/env/npx/lib/python3.8/site-packages/tensorflow/python/eager/function.py":3050:0))))))))))
#loc11 = loc(callsite("model/dense/BiasAdd@__inference_predict_112"("/home/stanley/env/npx/lib/python3.8/site-packages/tensorflow/python/keras/engine/functional.py":420:0) at callsite("/home/stanley/env/npx/lib/python3.8/site-packages/tensorflow/python/keras/engine/base_layer.py":1030:0 at callsite("/home/stanley/iree/iree/samples/mnistnet/generate_vision_model.py":67:0 at callsite("/home/stanley/env/npx/lib/python3.8/site-packages/tensorflow/python/framework/func_graph.py":975:0 at callsite("/home/stanley/env/npx/lib/python3.8/site-packages/tensorflow/python/eager/function.py":3971:0 at callsite("/home/stanley/env/npx/lib/python3.8/site-packages/tensorflow/python/eager/def_function.py":672:0 at callsite("/home/stanley/env/npx/lib/python3.8/site-packages/tensorflow/python/framework/func_graph.py":999:0 at callsite("/home/stanley/env/npx/lib/python3.8/site-packages/tensorflow/python/eager/function.py":3279:0 at callsite("/home/stanley/env/npx/lib/python3.8/site-packages/tensorflow/python/eager/function.py":3444:0 at "/home/stanley/env/npx/lib/python3.8/site-packages/tensorflow/python/eager/function.py":3050:0))))))))))
#loc12 = loc(callsite("model/dense_1/MatMul@__inference_predict_112"("/home/stanley/env/npx/lib/python3.8/site-packages/tensorflow/python/keras/engine/functional.py":420:0) at callsite("/home/stanley/env/npx/lib/python3.8/site-packages/tensorflow/python/keras/engine/base_layer.py":1030:0 at callsite("/home/stanley/iree/iree/samples/mnistnet/generate_vision_model.py":67:0 at callsite("/home/stanley/env/npx/lib/python3.8/site-packages/tensorflow/python/framework/func_graph.py":975:0 at callsite("/home/stanley/env/npx/lib/python3.8/site-packages/tensorflow/python/eager/function.py":3971:0 at callsite("/home/stanley/env/npx/lib/python3.8/site-packages/tensorflow/python/eager/def_function.py":672:0 at callsite("/home/stanley/env/npx/lib/python3.8/site-packages/tensorflow/python/framework/func_graph.py":999:0 at callsite("/home/stanley/env/npx/lib/python3.8/site-packages/tensorflow/python/eager/function.py":3279:0 at callsite("/home/stanley/env/npx/lib/python3.8/site-packages/tensorflow/python/eager/function.py":3444:0 at "/home/stanley/env/npx/lib/python3.8/site-packages/tensorflow/python/eager/function.py":3050:0))))))))))
#loc13 = loc(callsite("model/dense_1/BiasAdd@__inference_predict_112"("/home/stanley/env/npx/lib/python3.8/site-packages/tensorflow/python/keras/engine/functional.py":420:0) at callsite("/home/stanley/env/npx/lib/python3.8/site-packages/tensorflow/python/keras/engine/base_layer.py":1030:0 at callsite("/home/stanley/iree/iree/samples/mnistnet/generate_vision_model.py":67:0 at callsite("/home/stanley/env/npx/lib/python3.8/site-packages/tensorflow/python/framework/func_graph.py":975:0 at callsite("/home/stanley/env/npx/lib/python3.8/site-packages/tensorflow/python/eager/function.py":3971:0 at callsite("/home/stanley/env/npx/lib/python3.8/site-packages/tensorflow/python/eager/def_function.py":672:0 at callsite("/home/stanley/env/npx/lib/python3.8/site-packages/tensorflow/python/framework/func_graph.py":999:0 at callsite("/home/stanley/env/npx/lib/python3.8/site-packages/tensorflow/python/eager/function.py":3279:0 at callsite("/home/stanley/env/npx/lib/python3.8/site-packages/tensorflow/python/eager/function.py":3444:0 at "/home/stanley/env/npx/lib/python3.8/site-packages/tensorflow/python/eager/function.py":3050:0))))))))))
#loc14 = loc(callsite("model/dense_2/MatMul@__inference_predict_112"("/home/stanley/env/npx/lib/python3.8/site-packages/tensorflow/python/keras/engine/functional.py":420:0) at callsite("/home/stanley/env/npx/lib/python3.8/site-packages/tensorflow/python/keras/engine/base_layer.py":1030:0 at callsite("/home/stanley/iree/iree/samples/mnistnet/generate_vision_model.py":67:0 at callsite("/home/stanley/env/npx/lib/python3.8/site-packages/tensorflow/python/framework/func_graph.py":975:0 at callsite("/home/stanley/env/npx/lib/python3.8/site-packages/tensorflow/python/eager/function.py":3971:0 at callsite("/home/stanley/env/npx/lib/python3.8/site-packages/tensorflow/python/eager/def_function.py":672:0 at callsite("/home/stanley/env/npx/lib/python3.8/site-packages/tensorflow/python/framework/func_graph.py":999:0 at callsite("/home/stanley/env/npx/lib/python3.8/site-packages/tensorflow/python/eager/function.py":3279:0 at callsite("/home/stanley/env/npx/lib/python3.8/site-packages/tensorflow/python/eager/function.py":3444:0 at "/home/stanley/env/npx/lib/python3.8/site-packages/tensorflow/python/eager/function.py":3050:0))))))))))
#loc15 = loc(callsite("model/dense_2/BiasAdd@__inference_predict_112"("/home/stanley/env/npx/lib/python3.8/site-packages/tensorflow/python/keras/engine/functional.py":420:0) at callsite("/home/stanley/env/npx/lib/python3.8/site-packages/tensorflow/python/keras/engine/base_layer.py":1030:0 at callsite("/home/stanley/iree/iree/samples/mnistnet/generate_vision_model.py":67:0 at callsite("/home/stanley/env/npx/lib/python3.8/site-packages/tensorflow/python/framework/func_graph.py":975:0 at callsite("/home/stanley/env/npx/lib/python3.8/site-packages/tensorflow/python/eager/function.py":3971:0 at callsite("/home/stanley/env/npx/lib/python3.8/site-packages/tensorflow/python/eager/def_function.py":672:0 at callsite("/home/stanley/env/npx/lib/python3.8/site-packages/tensorflow/python/framework/func_graph.py":999:0 at callsite("/home/stanley/env/npx/lib/python3.8/site-packages/tensorflow/python/eager/function.py":3279:0 at callsite("/home/stanley/env/npx/lib/python3.8/site-packages/tensorflow/python/eager/function.py":3444:0 at "/home/stanley/env/npx/lib/python3.8/site-packages/tensorflow/python/eager/function.py":3050:0))))))))))

