module  {
  flow.variable @"__iree_flow___sm_node19__model.layer-2.kernel" dense<"…"> : tensor<784x10xf32> attributes {sym_visibility = "private"}
  flow.variable @"__iree_flow___sm_node20__model.layer-2.bias" dense<0.000000e+00> : tensor<10xf32> attributes {sym_visibility = "private"}
  flow.variable @"__iree_flow___sm_node25__model.layer-3.kernel" dense<"…"> : tensor<10x128xf32> attributes {sym_visibility = "private"}
  flow.variable @"__iree_flow___sm_node26__model.layer-3.bias" dense<0.000000e+00> : tensor<128xf32> attributes {sym_visibility = "private"}
  flow.variable @"__iree_flow___sm_node35__model.layer-5.kernel" dense<"…"> : tensor<128x10xf32> attributes {sym_visibility = "private"}
  flow.variable @"__iree_flow___sm_node36__model.layer-5.bias" dense<0.000000e+00> : tensor<10xf32> attributes {sym_visibility = "private"}
  func @predict(%arg0: tensor<1x28x28x1xf32> {tf._user_specified_name = "inputs"}) -> tensor<1x10xf32> attributes {iree.module.export, iree.reflection = {abi = "sip", abiv = 1 : i32, sip = "I8!S5!k0_0R3!_0"}, tf._construction_context = "kEagerRuntime", tf._input_shapes = [#tf.shape<1x28x28x1>, #tf.shape<>, #tf.shape<>, #tf.shape<>, #tf.shape<>, #tf.shape<>, #tf.shape<>], tf.signature.is_stateful} {
    %0 = flow.variable.address @"__iree_flow___sm_node19__model.layer-2.kernel" : !iree.ptr<tensor<784x10xf32>>
    %1 = flow.variable.address @"__iree_flow___sm_node20__model.layer-2.bias" : !iree.ptr<tensor<10xf32>>
    %2 = flow.variable.address @"__iree_flow___sm_node25__model.layer-3.kernel" : !iree.ptr<tensor<10x128xf32>>
    %3 = flow.variable.address @"__iree_flow___sm_node26__model.layer-3.bias" : !iree.ptr<tensor<128xf32>>
    %4 = flow.variable.address @"__iree_flow___sm_node35__model.layer-5.kernel" : !iree.ptr<tensor<128x10xf32>>
    %5 = flow.variable.address @"__iree_flow___sm_node36__model.layer-5.bias" : !iree.ptr<tensor<10xf32>>
    %6 = mhlo.constant dense<0.000000e+00> : tensor<1x128xf32>
    %7 = mhlo.constant dense<0xFF800000> : tensor<f32>
    %8 = mhlo.constant dense<0.000000e+00> : tensor<f32>
    %9 = "mhlo.reshape"(%arg0) : (tensor<1x28x28x1xf32>) -> tensor<1x784xf32>
    %10 = flow.variable.load.indirect %3 : !iree.ptr<tensor<128xf32>> -> tensor<128xf32>
    %11 = flow.variable.load.indirect %2 : !iree.ptr<tensor<10x128xf32>> -> tensor<10x128xf32>
    %12 = flow.variable.load.indirect %5 : !iree.ptr<tensor<10xf32>> -> tensor<10xf32>
    %13 = flow.variable.load.indirect %4 : !iree.ptr<tensor<128x10xf32>> -> tensor<128x10xf32>
    %14 = flow.variable.load.indirect %1 : !iree.ptr<tensor<10xf32>> -> tensor<10xf32>
    %15 = flow.variable.load.indirect %0 : !iree.ptr<tensor<784x10xf32>> -> tensor<784x10xf32>
    %16 = "mhlo.dot"(%9, %15) : (tensor<1x784xf32>, tensor<784x10xf32>) -> tensor<1x10xf32>
    %17 = "mhlo.broadcast_in_dim"(%14) {broadcast_dimensions = dense<1> : tensor<1xi64>} : (tensor<10xf32>) -> tensor<1x10xf32>
    %18 = mhlo.add %16, %17 : tensor<1x10xf32>
    %19 = "mhlo.dot"(%18, %11) : (tensor<1x10xf32>, tensor<10x128xf32>) -> tensor<1x128xf32>
    %20 = "mhlo.broadcast_in_dim"(%10) {broadcast_dimensions = dense<1> : tensor<1xi64>} : (tensor<128xf32>) -> tensor<1x128xf32>
    %21 = mhlo.add %19, %20 : tensor<1x128xf32>
    %22 = mhlo.maximum %21, %6 : tensor<1x128xf32>
    %23 = "mhlo.dot"(%22, %13) : (tensor<1x128xf32>, tensor<128x10xf32>) -> tensor<1x10xf32>
    %24 = "mhlo.broadcast_in_dim"(%12) {broadcast_dimensions = dense<1> : tensor<1xi64>} : (tensor<10xf32>) -> tensor<1x10xf32>
    %25 = mhlo.add %23, %24 : tensor<1x10xf32>
    %26 = "mhlo.reduce"(%25, %7) ( {
    ^bb0(%arg1: tensor<f32>, %arg2: tensor<f32>):  // no predecessors
      %33 = mhlo.maximum %arg1, %arg2 : tensor<f32>
      "mhlo.return"(%33) : (tensor<f32>) -> ()
    }) {dimensions = dense<1> : tensor<1xi64>} : (tensor<1x10xf32>, tensor<f32>) -> tensor<1xf32>
    %27 = "mhlo.broadcast_in_dim"(%26) {broadcast_dimensions = dense<0> : tensor<1xi64>} : (tensor<1xf32>) -> tensor<1x10xf32>
    %28 = mhlo.subtract %25, %27 : tensor<1x10xf32>
    %29 = "mhlo.exponential"(%28) : (tensor<1x10xf32>) -> tensor<1x10xf32>
    %30 = "mhlo.reduce"(%29, %8) ( {
    ^bb0(%arg1: tensor<f32>, %arg2: tensor<f32>):  // no predecessors
      %33 = mhlo.add %arg1, %arg2 : tensor<f32>
      "mhlo.return"(%33) : (tensor<f32>) -> ()
    }) {dimensions = dense<1> : tensor<1xi64>} : (tensor<1x10xf32>, tensor<f32>) -> tensor<1xf32>
    %31 = "mhlo.broadcast_in_dim"(%30) {broadcast_dimensions = dense<0> : tensor<1xi64>} : (tensor<1xf32>) -> tensor<1x10xf32>
    %32 = mhlo.divide %29, %31 : tensor<1x10xf32>
    return %32 : tensor<1x10xf32>
  }
}

